app/src/main/assets/model.tflite (tflite, 5528 bytes, 3 tensors)

sequential_3/dense_6/BiasAdd/ReadVariableOp f4 [64]
0	0x3d5b599d	0.05355226
1	0xbd5d2b19	-0.05399618
2	0x3d2f6dbe	0.042829268
3	0x3d4dec13	0.050273966
4	0x3e2a70f1	0.16644646
5	0x3dce48d1	0.100724824
6	0x3c6bbf01	0.014388801
7	0xbcf0f5ef	-0.029414145
8	0x3d130f85	0.035903472
9	0x3cb9652b	0.022631248
10	0xbda1b979	-0.07896704
11	0x3da44260	0.080204725
12	0x3d08aedc	0.033369884
13	0x3e218736	0.15774235
14	0x3de532db	0.111913405
15	0x3d5facd0	0.054608166
16	0xbca6e060	-0.020370662
17	0xbb4794e2	-0.0030453731
18	0x3d43fda7	0.047849324
19	0x3d9af1ca	0.07565649
20	0x3d0a7b6d	0.033809114
21	0xbd1a72e6	-0.037707232
22	0x3dbe83d8	0.09302491
23	0x3e15d760	0.1463294
24	0xbd0a0f3a	-0.033705927
25	0x3dc1874b	0.09449633
26	0x3b0c10c6	0.0021372302
27	0x3db2e163	0.08734395
28	0x3c72463c	0.014787253
29	0xbc5ebe91	-0.013595239
30	0xbd1bc91c	-0.03803359
31	0x3da51e93	0.08062472
32	0x3d9c5238	0.076328695
33	0x3d8a8651	0.067639
34	0x3e212b0d	0.15739079
35	0xbc5747d6	-0.013139686
36	0xbc5c59d1	-0.013449148
37	0x3dfbcd0d	0.1229497
38	0x3de0ee8e	0.10983001
39	0x3d483a77	0.04888388
40	0x3c8611a2	0.01636583
41	0x3d77be25	0.06048407
42	0x3cc6e22d	0.02427777
43	0xbd3dfbab	-0.046382587
44	0xbd99b7d9	-0.07505769
45	0x3d015e4e	0.031584077
46	0xbd716385	-0.0589328
47	0x3d9e7707	0.077375464
48	0x3db97605	0.090557136
49	0x3e0586f7	0.13039766
50	0xbc3340d7	-0.010940752
51	0x3e2a0e8c	0.16607112
52	0x3d6e10e8	0.05812159
53	0xbdb8b539	-0.090189405
54	0x3e171305	0.14753349
55	0xbb32144e	-0.0027172747
56	0xbd935833	-0.07194557
57	0xbd82e367	-0.0639103
58	0xbcbe65c6	-0.023241889
59	0x3dcfb859	0.101425834
60	0xbccf68af	-0.025318472
61	0x3df9dd2d	0.12200389
62	0x3c406430	0.011742637
63	0x3d48f7cf	0.049064454

sequential_3/dense_6/MatMul f4 [64, 13]
0	0xbd75e370	-0.060031354
1	0xbea48a14	-0.32136595
2	0x3e033f3a	0.12817088
3	0x3de78e29	0.11306412
4	0x3d4e3708	0.05034545
5	0x3d58c434	0.05292149
6	0x3c96b155	0.018395105
7	0xbedca7b5	-0.430967
8	0xbe2de680	-0.1698246
9	0x3e1fce49	0.15606035
10	0x3e82cbed	0.25546208
11	0x3eabe714	0.33574736
12	0x3e065cad	0.1312129
13	0x3c8c9bc0	0.017164111
14	0x3ce62895	0.028095523
15	0xbe27bb35	-0.16380008
16	0x3e859a3a	0.26094228
17	0x3e812858	0.25226092
18	0x3dff6000	0.124694824
19	0xbe86eaa5	-0.26350895
20	0x3d92aefa	0.071622804
21	0xbe9cbab2	-0.30611187
22	0x3d9af043	0.075653575
23	0x3e7f86e3	0.24953799
24	0x3e8814c2	0.26578337
25	0xbdc7c336	-0.097540304
26	0x3e925451	0.28579953
27	0x3e1b9f3e	0.15197465
28	0x3ea81fd0	0.3283677
29	0x3e869ee2	0.26293093
30	0x3e140406	0.1445466
31	0x3dec3b75	0.11534778
32	0x3e96f332	0.29482418
33	0xbdde26d4	-0.108472496
34	0xbe25e298	-0.1619972
35	0x3e891ced	0.2677988
36	0x3d2badc0	0.041913748
37	0xbde73fc5	-0.1129146
38	0x3e66daa1	0.22544338
39	0x3e97c678	0.29643607
40	0x3eb6313a	0.35584432
41	0x3e15ccbe	0.14628884
42	0xbdd90acb	-0.10597762
43	0x3db9b8c1	0.09068442
44	0x3de21514	0.110391766
45	0x3e9a5198	0.30140376
46	0x3d1b28b5	0.037880618
47	0x3e633458	0.22187936
48	0xbdd4d4c7	-0.103921466
49	0xbe3180d7	-0.17334305
50	0x3e19ce9f	0.15020226
51	0x3ec4572d	0.3834776
52	0x3c88395b	0.016628912
53	0x3ef60614	0.48051512
54	0x3e217cf2	0.15770319
55	0x3e5536c5	0.20821674
56	0x3e1ed638	0.15511405
57	0x3df5bd90	0.11999047
58	0x3e4d8ad4	0.2007249
59	0xbe8d46b5	-0.27593008
60	0x3eb98508	0.36234307
61	0xbe490bf6	-0.19633469
62	0x3e76a6d6	0.2408708
63	0xbeaacf08	-0.33361077
64	0xbf3dc95b	-0.7413537
65	0x3e403bd7	0.18772827
66	0x3ca9ac74	0.020712115
67	0xbdadf2b2	-0.08493556
68	0x3ea989f7	0.3311307
69	0x3e0d3aa0	0.13791895
70	0x3c850a14	0.016240157
71	0xbe153e9c	-0.14574665
72	0x3dbe82d9	0.09302301
73	0x3e2acb27	0.16679059
74	0x3e80a868	0.25128484
75	0x3e20b4ff	0.15694045
76	0xbdecc380	-0.11560726
77	0xbf0ad21b	-0.54226846
78	0x3e291b93	0.16514425
79	0x3bbf3e45	0.0058362805
80	0xbd9739bc	-0.07384059
81	0xbd3136e5	-0.043265242
82	0xbd503810	-0.050834715
83	0xbe03f257	-0.12885414
84	0x3da5a9cf	0.08089029
85	0x3d8f1286	0.06985955
86	0x3ea28b9d	0.3174714
87	0x3db53496	0.088479206
88	0x3e07f0ce	0.13275453
89	0x3df2b442	0.11850788
90	0x3edb03a7	0.42776224
91	0x3c1eb1d1	0.009685949
92	0xbe0fa53a	-0.14027873
93	0x3e0236f4	0.12716275
94	0xbce560ca	-0.028000254
95	0xbe6d74ed	-0.23189135
96	0x3e59759f	0.21236275
97	0x3d6bddc6	0.057584547
98	0x3e60a999	0.21939696
99	0xbec6b1ee	-0.38807625
100	0xbe40ad53	-0.18816118
101	0x3dcb06ad	0.09913383
102	0xbe376311	-0.17908885
103	0x3dccff5d	0.10009644
104	0x3e6c9f2f	0.23107599
105	0x3eb0341f	0.34414765
106	0x3bab0dca	0.0052201496
107	0x3d0ff9b4	0.035150245
108	0x3ebf20ad	0.37329617
109	0xbdfbb220	-0.12289834
110	0xbe03ffea	-0.12890592
111	0xbef9635c	-0.48708618
112	0x3e380b7e	0.17973134
113	0x3e33b6c0	0.17550182
114	0xbe0b8ea6	-0.13628635
115	0xbe9a4951	-0.3013406
116	0xbf4b2337	-0.7935061
117	0xbe1dd86f	-0.15414594
118	0xbeab5d94	-0.33469832
119	0x3e327f3b	0.17431347
120	0xbe05bade	-0.13059565
121	0x3e915edf	0.28392693
122	0x3e714abd	0.23563667
123	0xbea6e858	-0.3259914
124	0x3e80704e	0.25085682
125	0xbe4e0a88	-0.20121205
126	0xbd21ca02	-0.03949929
127	0xbbc8856c	-0.0061194208
128	0x3ca9b29f	0.020715056
129	0x3e27a27f	0.16370581
130	0x3d943fd6	0.07238738
131	0x3c05bc94	0.008162636
132	0xbe4a7f86	-0.19775209
133	0xbd9502ad	-0.07275901
134	0xbe452a8b	-0.1925451
135	0x3e17f1c5	0.14838322
136	0xbea58242	-0.3232594
137	0x3e62a189	0.22131933
138	0xbe8cd32e	-0.27504867
139	0xbdca92de	-0.09891294
140	0xbd9ae83f	-0.07563829
141	0xbd80d59c	-0.06290743
142	0x3ca27331	0.019830318
143	0x3e11ccf1	0.14238335
144	0x3dc84944	0.09779599
145	0x3d4e5fab	0.050384205
146	0x3dbf02f5	0.09326736
147	0xbdd49a23	-0.10380962
148	0xbd502d1d	-0.050824273
149	0x3d93c75e	0.07215761
150	0x3d97d7ec	0.07414231
151	0x3e2dfe5c	0.16991562
152	0x3e2c8036	0.16845784
153	0xbd229bf4	-0.03969951
154	0xbcd99435	-0.026559928
155	0x3f11ba16	0.5692457
156	0x3e98aa64	0.29817498
157	0x3e5cc59f	0.21559761
158	0x3e8a1a71	0.26973298
159	0xbe21ce06	-0.15801248
160	0x3e7667be	0.24063012
161	0xbcb6cdc1	-0.022314908
162	0x3e0ca4e7	0.1373478
163	0x3dd07567	0.10178643
164	0x3e5b02a0	0.2138772
165	0x3e000991	0.1250365
166	0xbe97fdfe	-0.29685968
167	0xbdda256f	-0.10651671
168	0x3f0197d4	0.50622296
169	0x3de3fdc5	0.11132387
170	0x3e625a06	0.22104654
171	0xbdfa7294	-0.12228885
172	0x3e957eca	0.29198295
173	0xbdec25a4	-0.11530617
174	0x3dc618fe	0.09672736
175	0xbdebbf9f	-0.11511158
176	0xbe78185b	-0.24228041
177	0x3eb3319a	0.3499878
178	0xbe1637ac	-0.14669675
179	0x3df50419	0.11963672
180	0xbe5f35e5	-0.21797903
181	0xbe5a25d0	-0.21303487
182	0x3e8e08c7	0.27741072
183	0x3eb3a73f	0.35088536
184	0x3d624588	0.05524209
185	0x3d43b4c8	0.04777983
186	0x3c210a6c	0.009829145
187	0x3dc229f5	0.09480659
188	0x3e306609	0.17226423
189	0x3e3b8884	0.18313795
190	0x3ed7804a	0.42090064
191	0x3dc05066	0.09390335
192	0xbe6c7315	-0.23090775
193	0xbd7f373a	-0.062308528
194	0xbdd91085	-0.10598854
195	0xbe8532b5	-0.2601525
196	0xbdba0652	-0.09083237
197	0xbeb8fe2b	-0.36131415
198	0x3cfe1979	0.031018006
199	0xbd57b176	-0.052659474
200	0x3e2fe5b6	0.17177472
201	0x3de81359	0.11331815
202	0xbe492493	-0.19642858
203	0x3dff7de5	0.12475184
204	0xbe58679e	-0.21133277
205	0x3dfb9850	0.12284911
206	0xbddc01c6	-0.10742526
207	0xbefc40a5	-0.4926807
208	0xbe6a3603	-0.22872166
209	0xbde3a38b	-0.11115178
210	0x3d48c7e0	0.04901874
211	0x3e002168	0.12512743
212	0xbd3f7da1	-0.04675067
213	0xbe45dd7e	-0.19322774
214	0xbd60b3da	-0.05485902
215	0xbe3d50eb	-0.18487899
216	0xbe2ee66f	-0.17080091
217	0x3e8b4a49	0.27205113
218	0xbe358724	-0.17727333
219	0x3e2618a9	0.16220345
220	0xbc77e02a	-0.0151291285
221	0x3e8ed581	0.27897266
222	0x3d7230cc	0.059128568
223	0xbe45333f	-0.1925783
224	0xbd7c1a5a	-0.06154857
225	0xbbdc7008	-0.0067272224
226	0xbe46ed67	-0.194265
227	0xbc2affc9	-0.0104369605
228	0x3e0c595a	0.1370596
229	0x3edd688e	0.4324383
230	0x3d87a13d	0.06622551
231	0x3d479dc0	0.048734426
232	0x3e5264cd	0.20546265
233	0x3f02157d	0.5081404
234	0xbed775c1	-0.42082027
235	0xbeb3afde	-0.35095114
236	0x3ed30a47	0.41218778
237	0x3e862c49	0.26205662
238	0x3e5e4848	0.2170726
239	0xbe72132b	-0.23640124
240	0x3dbb6566	0.091501996
241	0xbec10495	-0.37698808
242	0x3e877a75	0.26460615
243	0xbb185582	-0.0023244326
244	0x3e714655	0.23561986
245	0x3e6c63c0	0.23084927
246	0x3e2b3813	0.1672061
247	0xbe8217e7	-0.2540886
248	0xbe9bb396	-0.3041045
249	0xbdc772a8	-0.09738666
250	0xbe5e3d81	-0.2170315
251	0x3e2fe23d	0.17176147
252	0x3e45233c	0.19251722
253	0xbe8332b6	-0.25624627
254	0x3d2fcfa8	0.042922646
255	0xbdc7b0be	-0.09750508

sequential_3/dense_7/MatMul f4 [1, 64]
0	0xbedbcc1a	-0.42929155
1	0xbe282bea	-0.16423002
2	0x3ec55335	0.38540044
3	0x3ea2fa0e	0.31831402
4	0x3e839d41	0.25705913
5	0x3ddb14ae	0.10697304
6	0x3ec10c08	0.37704492
7	0xbe27ad0a	-0.16374603
8	0x3e9d8ef4	0.30773127
9	0xbe33674b	-0.17519872
10	0xbe89dda5	-0.26926914
11	0x3efd56b4	0.49480212
12	0x3e6244f7	0.2209662
13	0x3f06379e	0.52428615
14	0x3ea16b43	0.31527147
15	0x3eadf534	0.33976138
16	0xbe244de5	-0.1604534
17	0x3e8216f9	0.25408152
18	0xbe9cdeb9	-0.30638674
19	0xbe59333b	-0.21210949
20	0x3eb01d9d	0.34397593
21	0xbec3ab52	-0.38216645
22	0x3ee29a2e	0.44258255
23	0x3ecbdbef	0.39816234
24	0xbdb977e4	-0.090560704
25	0x3ee01233	0.43763885
26	0x3e97aaa5	0.2962238
27	0xbe6b61f0	-0.22986579
28	0x3ebfd984	0.3747064
29	0xbea4db94	-0.32198775
30	0xbeaa605a	-0.33276635
31	0xbe92ad36	-0.28647774
32	0x3ee30149	0.44336918
33	0x3e616a6b	0.22013251
34	0xbede1823	-0.4337779
35	0xbea97554	-0.33097327
36	0xbe309cf3	-0.17247371
37	0xbebe7933	-0.37201843
38	0xbec5d339	-0.38637713
39	0xbe255c01	-0.16148378
40	0xbe84f481	-0.25967792
41	0x3e975366	0.29555815
42	0xbe5e99cf	-0.21738361
43	0xbe4f7e11	-0.20262934
44	0xbce1cfff	-0.027565
45	0x3e7a6750	0.24453473
46	0xbd72b8e1	-0.059258346
47	0xbed464e9	-0.41483238
48	0x3e40a36a	0.18812338
49	0x3f0dafb9	0.55346256
50	0x3e0c22b4	0.13685113
51	0x3e9bf0d5	0.30457178
52	0x3e4339cb	0.19065015
53	0xbe661fc7	-0.2247306
54	0xbf0034ba	-0.50080454
55	0xbe740e08	-0.23833477
56	0xbe4e594f	-0.20151256
57	0xbe921e6c	-0.28538835
58	0xbe86248e	-0.26199764
59	0x3f034332	0.51274407
60	0xbeded492	-0.43521553
61	0x3ec2c4cb	0.38040766
62	0xbe933fe6	-0.28759688
63	0x3ddd89fc	0.10817334
